pokec_n.pt (torch, 31640 bytes, 4 tensors)

gnns.0.bias f4 [24]
00000000: 339c 6bbd 2bad 3ebd 97c0 db3d f4d1 413e
00000010: 6359 b2bd 6944 a83d 0055 a63e 7c17 22be
00000020: 4669 c3bc b6b4 e73c cb5e 5abe c340 873e
00000030: f2ca 33bd 8a6b 1dbe 6505 683d 141c c3bd
00000040: 8121 66be 13c0 0f3e f122 6fbe 9b9f 27be
00000050: 7355 efbd 88bf cd3e 95eb e5bc e7da ccbc
-0.05752201 -0.046551865 0.10730093 0.18927747 -0.087084554 0.08216173 0.32486725 -0.15829271
-0.02385391 0.028284412 -0.21325223 0.26416597 -0.043894716 -0.15373054 0.05664577 -0.0952684
-0.22473718 0.14038114 -0.23353173 -0.16369478 -0.1168622 0.4018519 -0.028066436 -0.025006725

gnns.0.lin.weight f4 [24, 266]
00000000: 4b6a 2ebe 8bd2 12be 5ff8 8cbd d85f 70be
00000010: c1dd 363e 3c06 cb3c 14ce dc3d d0c7 b73d
00000020: 485d 783d ea49 a2bc 4ce6 c63d 2c3a 213d
00000030: 8301 7dbd c3f1 b93d a8ad 9a3c 9795 85be
00000040: c80f b83d 37a5 b3bc 0439 e6bd 6b13 2a3d
00000050: 5ec6 ee3d 2293 04be fc24 56bd 9b1a aebd
00000060: c9e2 5abd 072a fa3d 4abc f7bd 7650 19be
00000070: 5fa2 bb3d 4602 fe3c 8969 e5bb e487 0b3e
00000080: 2ab3 903b 52e4 793d f1b6 7eba 09c2 b63d
00000090: aab8 c3bd e567 89bd 1923 cebb 6630 7f3d
000000a0: a696 bbbd 3b4b e2bd fbb8 9ebc 1a93 15bd
000000b0: 9495 113c a7be cfbd 74cd 733d 0e95 fe3d
000000c0: 5e71 f23c 3927 a3bd d4c6 b33a 2c7f c13d
000000d0: 82d7 2cbd c9a6 a83c 58e1 bebd 6fce aa3c
000000e0: 1018 efbc 004f 133e 560e 26be c1ef f93b
000000f0: 2c35 c93d afa1 5a3e 1b5f 363e 2257 133e
00000100: 5832 023e 6a35 973d cf9f 56bd 5f1e 6fbe
00000110: 53ff 223e 1a88 a93b 09cd 013c eaa2 173d
00000120: 72bd abbd e388 f1bc 43ab 09be c184 2a3e
00000130: c14d dbbd 50aa 823c a7e0 70bd edc8 843d
00000140: e919 493d 5639 f73c bc95 7e3c 4220 a6bc
00000150: ad87 333e 8e4b 1a3e 9e87 5fbe 11d8 1a3e
00000160: aeaa debd 798a 1ebb a89c 623c eb32 0b3d
00000170: 57f3 03be f23c 02be 1bb5 9c3d aca6 053e
00000180: 5356 a0bd 7308 ff3d bfa4 473e c8cf 423d
00000190: bccd 223e 96ec c83d b1f3 96bd ef87 a0bd
000001a0: fc1a 04be 6eeb b0bd b113 4b3d 74cc 123d
000001b0: 73b9 2d3d 3696 25be 2bb3 f93d f589 253c
000001c0: d6d7 0c3d e103 95bb 24d3 24be b0a9 333d
000001d0: e748 8abd c113 993d 4547 5e3a 354d e3bc
000001e0: 756f 67bd 8523 abbc 2d82 a9bd 2ad4 78bd
000001f0: bc10 253b 26d7 07be 8a40 843d d575 05bd
00000200: a8c1 3a3e 00a6 69bc 970a 643d cbeb c3bd
00000210: b575 98bd f808 36bd 4ccb bf3d fb01 1f3e
00000220: 5399 efbd e73c ac3c de40 20bc bf44 f33d
00000230: e231 8dbd 0a54 87bd 9061 003e 5325 03bd
00000240: cdb0 513d e6f5 00be e4ba 0c3e dadc 25bd
00000250: ef92 423d 7600 943d e6b3 2c3e bccc d23c
00000260: 7e54 ca3d d6fb cebd 8dee 943d 65c3 143e
00000270: c3a5 483c 8e31 dcbd 01e8 2bbe 4a58 23bd
00000280: ee1f 20bc 55ec 953b 2602 943d 9a26 edbc
00000290: f841 99bd 841e 9c3a 1449 db3c 67ca 05bd
000002a0: 08bd 9ebd 85e8 97bd 79a6 10be 49e1 5c3d
000002b0: 6367 10be e820 c0bc 96a3 983d eee2 4b3d
000002c0: 1192 ed3d 45fc 8bbd 42a6 133d e6bd 1bbc
000002d0: 3d7e 01be 9a87 f83d f73a 37bc f08d 4e3d
000002e0: 4270 04be aaeb 1abe 8136 323c 6799 f93d
000002f0: f5b1 083e bd50 283e 88c2 95bd b936 cfbc
00000300: c8b8 1dbd 3a34 aebd fd40 c43d f099 c13c
00000310: 2a0e 90bd 43bf 923d b02b 0d3e 2028 dd3d
00000320: fd23 c2bc b2be 153d 4992 39bd 0770 793d
00000330: c505 603b bd23 b63d f813 3cbb 0b76 46bd
00000340: 0bf6 00be 8556 0b3c 6dde a53d 4b2a e4bb
00000350: 70c1 b1bd 2881 313e 9cd3 fdbd 50ff afbd
00000360: dfed 72bb 3dac 1f3d 96db 39bd 8b24 a0bd
00000370: 7100 e9bd 2a2a 1e3e b2ec 96bc d7a6 1a3d
00000380: a36a 063e e4ee 11bd 210c bbbd 148d d9bc
00000390: 0b6e b13c 32a5 b7bc 9a7d b4bd f8cc b33d
000003a0: 21b4 ccbd 9a22 cbbd 30f8 3e3e 130c 523d
000003b0: bb99 51bd dcd3 193c c054 063e 66e6 3abd
000003c0: 613f 02bd 938d 4f3d 1f3a 1e3e c834 04bd
000003d0: 6253 73bd b40e adbd 1619 c0bd c5c0 053e
000003e0: 10c2 8dbd 9e25 da3d 052c 26bd 1a44 14bd
000003f0: e995 2fbd c65c 83bd a280 89bd 8539 a13d
-0.17032735 -0.14338128 -0.068833105 -0.23474061 0.1785803 0.024783246 0.10781494 0.08973658
0.060635835 -0.019810636 0.097118944 0.039362118 -0.06176902 0.090793155 0.018881634 -0.2609069
0.08987385 -0.021929367 -0.112413436 0.041522425 0.11658929 -0.12946752 -0.052281365 -0.08501168
-0.053438935 0.12215047 -0.1209646 -0.149721 0.09161829 0.031006943 -0.007001106 0.13626057
0.0044158893 0.06100876 -0.00097165914 0.08923728 -0.09556706 -0.067092694 -0.006290805 0.062302016
-0.09159593 -0.11049505 -0.019375315 -0.03651724 0.00888576 -0.10143786 0.059522107 0.12430774
0.029595073 -0.079664655 0.0013715872 0.09448084 -0.04219771 0.020587342 -0.09320325 0.020850388
-0.029186279 0.14385605 -0.16216406 0.007627458 0.09824595 0.2135074 0.17809717 0.14388707
0.12714517 0.07383235 -0.0523985 -0.2335143 0.15917711 0.0051736953 0.007922419 0.0370206
-0.08385743 -0.029484218 -0.13444237 0.16652204 -0.1070819 0.015950352 -0.058807995 0.06483636
0.049096975 0.030178707 0.015538629 -0.020279054 0.17532225 0.15067884 -0.21829078 0.15121485
-0.10872398 -0.0024191423 0.013831295 0.033984106 -0.12885796 -0.12718561 0.076517306 0.13051862
-0.07828965 0.124527834 0.1949644 0.047561437 0.15898794 0.0981075 -0.07370699 -0.07838427
-0.12900919 -0.08638655 0.049579326 0.035839513 0.042413186 -0.16170582 0.12192377 0.010103692
0.034385525 -0.0045475815 -0.16096169 0.043863 -0.06752186 0.07474471 0.0008479248 -0.027746776
-0.056502778 -0.02089096 -0.08276782 -0.06074921 0.0025186976 -0.13265666 0.06457622 -0.032583077
0.18237936 -0.014260769 0.05567416 -0.09566458 -0.07444326 -0.044442147 0.09364948 0.15528099
-0.11699166 0.021025134 -0.009781091 0.11878347 -0.0689428 -0.06607826 0.12537217 -0.032018017
0.051194 -0.12593803 0.13743168 -0.040493824 0.047503408 0.072266504 0.16865501 0.02573239
0.09879397 -0.10106628 0.072720625 0.14527662 0.012246552 -0.10751639 -0.16787721 -0.03987912
-0.009773238 0.004575292 0.07226972 -0.02894907 -0.07483286 0.001191095 0.026768245 -0.03266373
-0.077508986 -0.074173965 -0.14126004 0.053925786 -0.14101939 -0.02345319 0.074530765 0.049776964
0.116001256 -0.06835226 0.036047228 -0.009505725 -0.12645812 0.12135239 -0.011183492 0.05042833
-0.12933448 -0.15128961 0.010877253 0.12187462 0.13349135 0.16437049 -0.073124945 -0.025294648
-0.0385063 -0.08506055 0.09582708 0.023632973 -0.070339516 0.071653865 0.13786197 0.10798669
-0.023698801 0.036558814 -0.045305524 0.060897853 0.0034183126 0.08893535 -0.0028698426 -0.04845242
-0.12593858 0.008504515 0.08099065 -0.0069630495 -0.086794734 0.17334425 -0.12393877 -0.08593619
-0.0037068052 0.03898262 -0.04537543 -0.0781947 -0.11377037 0.15445772 -0.018423412 0.037756767
0.13126616 -0.035628214 -0.09133173 -0.02655653 0.021658918 -0.022417638 -0.08813019 0.08779329
-0.09995294 -0.09918709 0.18649364 0.051281046 -0.051172 0.00938889 0.13118267 -0.04562988
-0.031798724 0.050672125 0.15451859 -0.0322769 -0.059405692 -0.0845007 -0.09379785 0.13061817
-0.0692178 0.10651706 -0.040569324 -0.03619776 -0.042867575 -0.064141795 -0.06713988 0.07872299

gnns.1.bias f4 [24]
00000000: 83eb 76be 0986 63bd 47ef 013e c19f 7ebd
00000010: 909c 27bc fea8 e93e 1dd3 cbbb 234c 23be
00000020: fae5 343d 53b3 593c 18ec 833a 416a 7e3d
00000030: 846b bebd 92db 8a3d c4f5 bb3b 1f25 023e
00000040: 6e8f ed3b a365 0c3f 2e5e 7c3d f229 883d
00000050: 62d3 c4bd 569f d13b 9d48 cd3d 41b2 133d
-0.24113278 -0.055547748 0.12688933 -0.062164072 -0.0102301985 0.45636743 -0.006220235 -0.15947013
0.044164635 0.013287383 0.0010064868 0.06211305 -0.09297851 0.06780161 0.0057360847 0.12709473
0.007249764 0.54842585 0.061613254 0.066486254 -0.096106306 0.006397168 0.100236155 0.036058668

gnns.1.lin.weight f4 [24, 24]
00000000: 18bc 72be 1051 db3b 9a79 88be 4790 db3d
00000010: 9e89 c2bd 2fe8 91bd ebc8 d0be e6a7 6c3d
00000020: 413e 88bb 8e29 63be f5a8 563f 2a4f 08bf
00000030: 0ffe 263e c248 1fbf 4673 0d3e 462f d9bd
00000040: 5ee0 fa3e 577a a03c 7387 adbe a7fa 8ebe
00000050: b61d d83d 2c3f 9bbe 27d7 283f 8e6a a7bc
00000060: 2537 8b3d c982 a83e 3a6a 6d3d a545 313d
00000070: 2195 a33e c47d b43e ffd3 753e 49fe 8d3e
00000080: afc1 823e 7ae4 863e eb0e 0e3f 42f0 edbe
00000090: 4730 92be cc5e f53c 059b 3bbe e987 113e
000000a0: 3529 173d 1b53 cfbe 537c 033e e93d 183f
000000b0: e64f be3e f64b 383e b041 e03d 69cc 7e3e
000000c0: 2287 5a3e 567c dd3e 5ee4 1cbe e058 14bf
000000d0: 6006 33be 4b84 44be 0335 8bbe 5477 c43d
000000e0: dbe3 9abe d02f 44be 7746 7b3e 3f8c c0bc
000000f0: 658b dfbe 4db0 ab3e 892f 6a3e 23b6 f53e
00000100: 7335 153f e843 5b3e 07c2 9fbe 4b58 153e
00000110: 62e2 2e3f d7ee a3be 0e92 1d3f e850 42be
00000120: f9bf ee3d cf7b 263d 1d2c 27be 94fc 40be
00000130: cb0a 7dbe 12c1 9abe 0f63 51bd a5e8 2d3e
00000140: 885e 28be 3943 e93d 9dfc 1e3f 8eb5 a0be
00000150: b661 41be a882 d93e c8bf 03bd 4668 2dbb
00000160: 659e 463d d80d 973e c3d4 bb3e 86ac 3dbf
00000170: f176 05bf 772c 303e b44c fd3e 8fb1 f2be
00000180: 47c1 a5be 7ddd 40be 035f c43e 1f9d af3e
00000190: 6ab0 aabe 078e 153e 2b88 763e 514a 42be
000001a0: c426 3abe 471d aabe 980e 1bbe 3e3c 203f
000001b0: be08 893d 0639 473e 6dce 163e 81a5 12bf
000001c0: f9c7 a5be 0f28 993e 060a 983d f87b 9a3e
000001d0: c81e cbbe b84b 0a3e 48e2 9bbe 1574 65bc
000001e0: 087a 783e 6c64 533e 2e7d 023e fa8d 383e
000001f0: f446 69bf 61f5 6dbc 5695 983e 6f4b 45be
00000200: 9d91 5bbe 6059 06bc 3ebd 15bf b97a ee3e
00000210: 0e21 593e bb6a b43e 3b44 dbbd 4e89 18be
00000220: 9e21 913e 534c e2bd 60f2 f5bd b5eb 36be
00000230: d2c8 e1be a7ef dfbc 71da 4cbd 7a2d 823e
00000240: e25f a9bd 2f58 883e cd67 af3e add7 a03e
00000250: d177 ccbd a7d9 d73e 29cf d7bd d4e9 a5be
00000260: ad3a dcbd ebc5 773e 4e4e 473e e1f9 f43e
00000270: ca02 73be 62d3 98be 73da 423e 03e2 f8bd
00000280: aa43 413e fe30 79be e2da cdbd 856f af3d
00000290: a05a b0be c54b 293e a1a2 f5bd 827c 6d3d
000002a0: 53b1 143c 0f31 593e 34af 1e3d 2b5d ddbd
000002b0: eb54 853e 9549 06be bd8c e53d 0081 56bf
000002c0: fc7a 443d 110b 9dbe a381 1a3f fb3c bcbe
000002d0: 96de 93bd 8e63 153e 2793 89bd 4b12 073f
000002e0: 307d 223f 84c3 03be cad6 603d 431f 6bbd
000002f0: b04d 72bf 113a 61be b722 93be 3b2e 883e
00000300: 553e 33bd 4f5c fbbd 2c2a fe3e a15c ed3e
00000310: 8dcd 04be fa0d 0a3f 00c1 3c3e e422 f0be
00000320: f4dd 90be a455 e73e 0c25 e8be e35f 8b3e
00000330: eb22 0bbe 2575 943d 18a5 1e3e 053b a2be
00000340: eff3 78be 919e c03e 4e33 6dbd d3a1 a23e
00000350: 9bbc e0bd 0635 eb3e ba35 54be 60cd f83c
00000360: 7317 223e 250a 08bc 1bc6 01be 3e36 843d
00000370: 82ca 8b3e ebae 59be 72e8 d4bd 791c d33e
00000380: 91a1 883e fadd 0f3e 30b2 1b3f e0ee e0be
00000390: 99be 453d 660a 70be 186a a73e 5647 adbd
000003a0: 70f7 603e df2a 0e3e a351 4abe f229 b03e
000003b0: 61ac a23e bdbd 0bbe 216c a43e 0e02 4d3e
000003c0: a2ab 923e 713a debe d466 b53e 6d27 bc3e
000003d0: b612 2a3d 7061 d03e 51a4 ed3e 23fd 54be
000003e0: cba0 7abc 080b 923e 0b97 98be dc80 dc3e
000003f0: d8f3 a7bd 8f43 b6be 08ec a93e 974a 99be
-0.23704565 0.006693013 -0.26655275 0.10720878 -0.09498905 -0.07124364 -0.40778288 0.057777308
-0.004157812 -0.2218382 0.8385156 -0.53245795 0.16307853 -0.62220395 0.13813505 -0.1060472
0.48999304 0.019589586 -0.33892402 -0.27925608 0.10552542 -0.30321634 0.65953296 -0.020436551
0.06797627 0.3291228 0.057962634 0.04327931 0.31949714 0.35252202 0.24006651 0.27733067
0.25538394 0.2634619 0.55491513 -0.46472365 -0.28552458 0.02995243 -0.18320854 0.14212002
0.036904532 -0.40493092 0.12840395 0.5946947 0.37170333 0.17997727 0.10950029 0.24882664
0.21340612 0.43258923 -0.1532149 -0.5794811 -0.174829 -0.19191091 -0.27188882 0.095930725
-0.30251965 -0.19158864 0.24538599 -0.023504375 -0.43661037 0.33532944 0.22869696 0.47990522
0.5828468 0.21412623 -0.3120272 0.14584462 0.6831418 -0.32018158 0.61550987 -0.18976176
0.1165771 0.040645417 -0.16325422 -0.18846351 -0.24711148 -0.30225426 -0.05111986 0.16983278
-0.16442311 0.11389775 0.6210421 -0.31388515 -0.1888493 0.42482495 -0.03216532 -0.0026459857
0.0484909 0.2950275 0.36685762 -0.74091375 -0.52134615 0.17204462 0.49472582 -0.4740109
-0.3237402 -0.18834491 0.38353738 0.3429956 -0.33337718 0.1460496 0.24075381 -0.18973662
-0.1817885 -0.33225462 -0.15142286 0.6259192 0.066911206 0.19455346 0.14727183 -0.5728379
-0.3237913 0.29913375 0.07423787 0.30172706 -0.39671922 0.13505447 -0.30446076 -0.014004727
0.24265301 0.20643777 0.12743065 0.1802291 -0.9112389 -0.014523835 0.29801434 -0.19267057
-0.21442266 -0.00820002 -0.58491886 0.46578005 0.21204016 0.3523768 -0.10706373 -0.14896128
0.2834596 -0.11049714 -0.1200912 -0.17863353 -0.44098526 -0.027335955 -0.05001301 0.2542532
-0.08270241 0.2662978 0.3425888 0.31414548 -0.09983791 0.42158243 -0.105375595 -0.3240496
-0.10753379 0.24196593 0.19463465 0.47846892 -0.23731533 -0.29848772 0.19028644 -0.12152483
0.18873468 -0.24335095 -0.10051514 0.085661925 -0.3444414 0.1653281 -0.119939096 0.057980068
0.0090754805 0.2121012 0.038741305 -0.10808786 0.2604135 -0.13114007 0.11208484 -0.8379059
0.04796885 -0.30672505 0.6035406 -0.36765274 -0.07220189 0.14588758 -0.0671752 0.5276229
0.6347227 -0.12867552 0.05489234 -0.05740286 -0.9464979 -0.21994807 -0.28737423 0.2659777
-0.043760616 -0.12273466 0.4964155 0.46359733 -0.12969036 0.53927577 0.18432999 -0.4690162
-0.28294337 0.45182526 -0.45340765 0.27221593 -0.13587539 0.07248906 0.15492666 -0.31685653
-0.24311803 0.37620977 -0.057910256 0.31764087 -0.10973474 0.4593889 -0.2072362 0.030371368
0.15829258 -0.0083032 -0.12673227 0.064556584 0.2730294 -0.21258132 -0.10395898 0.4123266
0.26685765 0.14049521 0.6081877 -0.43932247 0.04827747 -0.23441467 0.3269813 -0.08460872
0.2196939 0.13883542 -0.19757704 0.34407002 0.3177214 -0.13646598 0.32113746 0.20020315
0.2864657 -0.43403962 0.35430014 0.3674883 0.04152175 0.4069934 0.46414426 -0.20799689
-0.015297125 0.2852404 -0.29802737 0.43067062 -0.082008064 -0.35598418 0.3318789 -0.2993972
